model/keypoint_classifier/keypoint_classifier.tflite (tflite, 6556 bytes, 6 tensors)

arith.constant f4 [4, 10]
0	0xbf523f02	-0.8212739
1	0xbf1297e2	-0.57263005
2	0x3ee62e34	0.44957125
3	0xbef3f6b3	-0.47649154
4	0xbd91a1ea	-0.07110961
5	0xbef64148	-0.4809668
6	0x3def7811	0.11692823
7	0xbeead111	-0.4586263
8	0x3f683548	0.907063
9	0x3cff00c2	0.031128291
10	0x3f1eef79	0.62084156
11	0xbd561d4e	-0.05227404
12	0x3eff88c0	0.4990902
13	0x3edc6aa7	0.4305012
14	0x3f9c63f7	1.2218007
15	0xbf3a2bda	-0.7272316
16	0x3f8dc527	1.1075791
17	0xbf72ed10	-0.9489298
18	0xbf2e936e	-0.6819371
19	0xbfb395e6	-1.403012
20	0x3f423ddb	0.75875634
21	0x3eaa33e2	0.33242708
22	0xbe3ec65f	-0.1863036
23	0xbe1240d2	-0.1428254
24	0xbed304e3	-0.41214666
25	0xbead5e19	-0.33860853
26	0xbf0a6a61	-0.5406857
27	0x3f0b31bc	0.54372764
28	0xbf502eec	-0.813216
29	0x3ebc9606	0.3683321
30	0xbec9bd7b	-0.39402375
31	0x3d96d671	0.0736512
32	0xbf8ed4c1	-1.1158677
33	0x3f85e8ca	1.0461667
34	0xbed9566c	-0.42448747
35	0x3f3a9e59	0.7289787
36	0xbf7b10f3	-0.9807274
37	0xbdd633e2	-0.104591146
38	0x3f1e82bd	0.6191824
39	0xbf6e2d02	-0.93037426

arith.constant1 f4 [10, 20]
0	0x3ee12b8e	0.43978542
1	0xbe6483ad	-0.22315855
2	0xbf290321	-0.660204
3	0xbc463ac5	-0.012098973
4	0xbd7940dd	-0.060852874
5	0x3d35d77d	0.04439496
6	0x3c809e67	0.015700532
7	0x3dc2d2e2	0.09512879
8	0x3eca7588	0.39542794
9	0x3eb3e269	0.35133675
10	0x3d19122f	0.037370857
11	0x3c43a4d1	0.011941151
12	0xbd7abc76	-0.061214887
13	0xbebf8608	-0.37406945
14	0xbe901838	-0.28143477
15	0x3edcbc14	0.43112242
16	0x3f2dec80	0.67938995
17	0xbf68f7ee	-0.9100331
18	0xbd7f9475	-0.06239744
19	0xbf1c3fdf	-0.6103496
20	0x3e8c5047	0.27404997
21	0x3e7a3191	0.2443297
22	0xbea0acf8	-0.31381965
23	0x3ccbf7ec	0.024898492
24	0xbeee1cbd	-0.465063
25	0xbe2b0de9	-0.16704525
26	0x3daac651	0.08338607
27	0xbefece07	-0.4976656
28	0xbedf6ac2	-0.43636137
29	0xbe8d2d12	-0.27573448
30	0x3e1ae0fe	0.1512489
31	0x3e1b3648	0.15157425
32	0xbe1b1b5c	-0.15147156
33	0x3d033219	0.0320302
34	0xbeea8e63	-0.45811757
35	0x3e45d966	0.19321212
36	0x3e373a22	0.1789327
37	0xbe83bc7d	-0.25729743
38	0xbb234ece	-0.0024918797
39	0xbef04bd1	-0.46932843
40	0xbc9ff099	-0.019523906
41	0x3f16212a	0.58644354
42	0x3ba9aced	0.005178085
43	0xbe1b7e55	-0.1518491
44	0xbd11d1e6	-0.035600565
45	0xbe2d5a7b	-0.16929047
46	0x3f323ffd	0.6962889
47	0x3df01a75	0.11723796
48	0x3eea1a99	0.45723417
49	0x3ebb38d4	0.36566794
50	0x3f637e3f	0.8886451
51	0x3eaf09ac	0.34187067
52	0x3ec84e91	0.3912244
53	0x3df305d2	0.118663445
54	0x3e21d4e1	0.15803863
55	0x3f1f4498	0.6221404
56	0x3effd1a6	0.49964637
57	0x3de44a20	0.11146951
58	0x3e4b4534	0.19850618
59	0xbdb3a621	-0.08771921
60	0xbf193988	-0.5985341
61	0x3eb2e818	0.34942698
62	0xbc983986	-0.018582117
63	0x3deda9ec	0.11604676
64	0x3ea2832c	0.317407
65	0x3e37f135	0.17963107
66	0xbf19c5c5	-0.600674
67	0xbec3adef	-0.38218638
68	0x3ee580b1	0.44824746
69	0x3ef44423	0.47708234
70	0xbf47a425	-0.7798484
71	0x3f3134ce	0.692212
72	0x3f468dfa	0.7756039
73	0xbcf1cec2	-0.029517535
74	0x3ee71822	0.451356
75	0x3f0d5de7	0.5522141
76	0x3e24f4e5	0.16109045
77	0xbd9f1530	-0.07767713
78	0xbef8f3b5	-0.48623434
79	0x3d15c6ff	0.03656673
80	0xbd8d742a	-0.06906922
81	0x3ea64ec4	0.32481968
82	0xbeedcf2b	-0.4644712
83	0xbf0f4e9e	-0.55979335
84	0xbeaf0c20	-0.34188938
85	0xbf143098	-0.5788665
86	0xbe1708de	-0.14749476
87	0xbe803ca9	-0.2504628
88	0x3f0a11fb	0.53933686
89	0x3f00d9e7	0.5033249
90	0xbe1d3443	-0.15351968
91	0x3e7d8c14	0.24760467
92	0x3e7d7919	0.24753226
93	0xbed760d2	-0.42066056
94	0x3eaf855f	0.34281442
95	0x3f332160	0.699728
96	0x3ee5c86b	0.4487947
97	0xbf67e717	-0.9058699
98	0xbeae65fd	-0.34062186
99	0xbf257045	-0.64624435
100	0xbe2551c4	-0.16144472
101	0xbf103bdd	-0.56341344
102	0x3da0ebb1	0.078574546
103	0x3e545d3c	0.20738691
104	0x3f1f0b4d	0.6212662
105	0x3df5d745	0.1200395
106	0xbf28afcf	-0.6589326
107	0xbe633ec3	-0.2219191
108	0xbd1bd828	-0.03804794
109	0x3ec4c4de	0.38431448
110	0xbf65aa86	-0.89713323
111	0x3e811c61	0.25216964
112	0x3e6feb5e	0.23429629
113	0x3ed29770	0.41131163
114	0x3e198a55	0.14994176
115	0x3da62704	0.081129104
116	0xbe8f21c2	-0.27955443
117	0x3e72f607	0.23726664
118	0xbea65a17	-0.32490608
119	0xbe3651d8	-0.17804658
120	0x3e177916	0.14792284
121	0x3f2ac6d7	0.66709656
122	0xbecfc5cd	-0.40580598
123	0xbcfd5af7	-0.030927164
124	0xbed14dd3	-0.40879688
125	0xbdaba605	-0.08381275
126	0xbeb67a5e	-0.35640234
127	0xbbecb584	-0.007223787
128	0x3f56420a	0.8369452
129	0xbd7b3b7a	-0.06133602
130	0x3f2d42d8	0.6768012
131	0x3ea36a60	0.31917095
132	0x3e8a83f8	0.2705381
133	0xbe90fb4b	-0.2831672
134	0x3de9b053	0.11410584
135	0x3e96d334	0.2945801
136	0x3f553841	0.8328896
137	0xbeafb435	-0.34317175
138	0xbe93eb37	-0.28890392
139	0xbef033f7	-0.46914646
140	0xbebb3747	-0.3656561
141	0xbe2ec459	-0.17067088
142	0xbf1c0afb	-0.60954255
143	0x3dc98233	0.09839287
144	0xbe7f59a2	-0.24936536
145	0x3e2022e9	0.15638317
146	0x3e5b3375	0.21406348
147	0x3e5ca156	0.2154592
148	0xbdaab71b	-0.08335706
149	0x3cc33132	0.02382717
150	0xbc9fc980	-0.019505262
151	0xbc97d595	-0.018534461
152	0x3ddb6e33	0.10714378
153	0xbf14954b	-0.58040303
154	0xbf5c66e9	-0.8609453
155	0xbe274053	-0.16333131
156	0xbe6989ec	-0.2280652
157	0xbf82ccd8	-1.0218763
158	0xbdd9a697	-0.106274776
159	0xbf2a3f55	-0.66502887
160	0xbdac8c1e	-0.08425163
161	0xbecc34ae	-0.3988394
162	0x3f6cdf0e	0.92527854
163	0x3e776b10	0.24161935
164	0x3dcbbfb4	0.09948674
165	0x3ea28b54	0.31746924
166	0x3db6d615	0.08927552
167	0x3e65c650	0.22438931
168	0xbed4057b	-0.4141043
169	0x3e3bc7c1	0.18337919
170	0x3e164611	0.14675166
171	0x3ea82375	0.32839552
172	0x3dbeebf0	0.09322345
173	0x3f157a92	0.5839015
174	0x3f686199	0.9077392
175	0xbea3f739	-0.32024553
176	0xbdcd6b50	-0.10030234
177	0x3f8f883f	1.1213454
178	0xbd2414ff	-0.040059086
179	0x3f54b6cd	0.8309143
180	0x3f067dfe	0.52536
181	0x3cb51e7b	0.02210926
182	0x3a8d0c6a	0.0010761146
183	0x3f2a4bf2	0.66522133
184	0x3e65fd22	0.22459844
185	0x3f34059e	0.7032107
186	0x3f235248	0.63797426
187	0x3f46daf7	0.77677864
188	0xbd225512	-0.03963191
189	0xbefa6198	-0.48902583
190	0x3f5582e0	0.83402824
191	0xbe826f23	-0.25475416
192	0xbeb49892	-0.35272652
193	0x3e355bae	0.17710754
194	0xbf204108	-0.6259923
195	0x3e52b6f9	0.20577611
196	0xbecf47ae	-0.40484375
197	0xbf0be64a	-0.5464827
198	0x3f3dd6cc	0.7415588
199	0x3c9bea57	0.01903264

arith.constant2 f4 [4]
0	0xbc80dff9	-0.015731798
1	0xbef3e7a0	-0.47637653
2	0x3e97d487	0.29654333
3	0x3db9c38d	0.090705015

sequential_1/dense_1_2/BiasAdd/ReadVariableOp f4 [10]
0	0x3eb9b63d	0.3627185
1	0x3e0a2668	0.13491213
2	0x3d7b6572	0.061376043
3	0x3f2b90a1	0.6701756
4	0x3e03183d	0.12802215
5	0x3f0aa6dd	0.54160863
6	0xbc8bd66a	-0.017070014
7	0x3eb5f0fc	0.3553542
8	0x3d31a908	0.04337409
9	0x3f070c3c	0.52753043

sequential_1/dense_1/BiasAdd/ReadVariableOp f4 [20]
0	0xbe09823b	-0.13428585
1	0x3e87b12a	0.26502353
2	0xbdf9cdaf	-0.12197434
3	0xbe434ac1	-0.19071485
4	0xbdd14c71	-0.10219658
5	0xbe2a1fa3	-0.16613631
6	0xbe6fe9aa	-0.2342898
7	0xbdd904f8	-0.10596651
8	0x3ead8360	0.33889294
9	0x3e920f76	0.2852742
10	0xbe8a69ad	-0.2703375
11	0x3e9868d8	0.2976749
12	0x3eec04d3	0.4609743
13	0xbe89c697	-0.26909325
14	0xbdc002f8	-0.09375566
15	0x3e9d005c	0.30664337
16	0x3ebd9a42	0.37031752
17	0xbea066bf	-0.3132839
18	0xbe88dbbf	-0.26730153
19	0xbe48eb68	-0.1962105

sequential_1/dense_1/MatMul f4 [20, 42]
0	0xbe5e7c1a	-0.21727028
1	0xbe128750	-0.1430943
2	0xbef1b866	-0.47210997
3	0x3c7cffc9	0.015441843
4	0x3ca0ac54	0.019613422
5	0x3e3931b1	0.18085362
6	0x3cb67393	0.022271907
7	0x3d6c980b	0.057762187
8	0xbd0f3888	-0.03496602
9	0x3da5dcd1	0.08098758
10	0x3e478eef	0.19488119
11	0xbd007a0b	-0.03136639
12	0xbc6437fa	-0.0139293615
13	0x3dd0a000	0.101867676
14	0xbe218965	-0.15775068
15	0x3d8d6d61	0.06905628
16	0x3d942fed	0.072357036
17	0xbc436725	-0.011926447
18	0x3eb7ff29	0.3593686
19	0x3d91f76c	0.0712727
20	0x3e36273f	0.17788409
21	0x3dbf9992	0.09355463
22	0xbe69ed7e	-0.22844502
23	0x3d81a420	0.063301325
24	0xbe463b17	-0.19358478
25	0xbcd36ed8	-0.02580969
26	0x3e9401d7	0.28907654
27	0xbe03ec84	-0.12883192
28	0x3d96519c	0.073397845
29	0xbdc4fe63	-0.09618833
30	0xbe2f2e20	-0.17107439
31	0x3d5e7f3f	0.05432057
32	0xbf12f575	-0.5740579
33	0xbe9c19ff	-0.30488583
34	0x3dee559f	0.11637425
35	0xbdc5d0e1	-0.09658981
36	0x3d5fff57	0.05468687
37	0xbd5764bd	-0.052586306
38	0xbec0a094	-0.3762251
39	0xbe9a0267	-0.30079958
40	0xbf2576d1	-0.64634424
41	0x3e97da96	0.29658955
42	0x3c6c65a0	0.014428526
43	0xbe7e2280	-0.24817848
44	0xbe87b4f3	-0.2650524
45	0xbeb3f42d	-0.3514723
46	0x3dd95522	0.10611941
47	0xbe8976ac	-0.26848352
48	0x3e3727d2	0.17886284
49	0xbea240ce	-0.31690067
50	0xbe20e726	-0.15713176
51	0xbeb9d461	-0.36294845
52	0x3d71d58c	0.059041545
53	0xbd4f2013	-0.050567698
54	0x3e1737ee	0.14767429
55	0xbce851a8	-0.02835925
56	0x3b8c4b81	0.0042814617
57	0x3ddcb3cd	0.10776482
58	0xbc87e55a	-0.016588856
59	0x3d9ebf32	0.07751311
60	0xbc22521a	-0.00990727
61	0xbdbe5d19	-0.09295101
62	0xbcbbe2c2	-0.022935275
63	0x3e1412fd	0.14460368
64	0x3dc22580	0.09479809
65	0x3e650e01	0.22368623
66	0xbe7531dd	-0.23944803
67	0x3e5ac5ca	0.21364513
68	0xbcf0c7e8	-0.029392198
69	0x3e24b250	0.16083646
70	0xbd81239f	-0.06305622
71	0x3e8ba665	0.27275386
72	0x3e97b56f	0.2963061
73	0x3e9888d1	0.29791883
74	0x3d3c5980	0.04598379
75	0xbd4f19f2	-0.050561853
76	0x3ef184bc	0.4717158
77	0x3e7ae283	0.2450047
78	0x3d6fd1b5	0.0585496
79	0x3eb30b2f	0.3496947
80	0x3dd213a4	0.102576524
81	0x3f22e5f5	0.63632137
82	0xbdcdc0ef	-0.10046565
83	0x3cd6a501	0.026201727
84	0xbdde85de	-0.10865377
85	0x3e98f052	0.2987085
86	0xbccc3190	-0.024925977
87	0x3fa7f307	1.3121041
88	0xbe300eb3	-0.17193107
89	0x3ee67d09	0.4501727
90	0x3ce12734	0.027484514
91	0x3e31e33b	0.17371838
92	0xbd52d1c0	-0.051469564
93	0x3e185214	0.1487506
94	0x3d863971	0.06553925
95	0x3ca0cf04	0.019629963
96	0x3db3e142	0.08783199
97	0xbdf3e27a	-0.11908431
98	0xbc053f0c	-0.008132707
99	0xbf76cec7	-0.9640927
100	0x3e11cf52	0.14239243
101	0x3deec1a0	0.11658025
102	0xbdb84e46	-0.089993045
103	0x3d560ff7	0.05226132
104	0xbd3a17c5	-0.045432825
105	0xbc8f90dc	-0.017525129
106	0xbdafd2c3	-0.085851215
107	0x3c7f30d1	0.015575604
108	0x3c0ecacb	0.008715342
109	0x3cc00bed	0.023443187
110	0xbda5241b	-0.08063527
111	0xba9bb937	-0.001188076
112	0xbc964bfa	-0.018346775
113	0x3d884910	0.066545606
114	0x3e026753	0.12734728
115	0x3d601e62	0.054716475
116	0x3dedab76	0.11604969
117	0x3ceadca9	0.028669672
118	0xbd7bc79f	-0.06146967
119	0xbd2debdb	-0.042461257
120	0x3cb25450	0.021768719
121	0x3d5176f4	0.051138833
122	0xbcbd796b	-0.023129186
123	0x3cdd8fc3	0.02704609
124	0x3d047d72	0.032346196
125	0x3d828625	0.06373242
126	0xbe9efa2e	-0.31050247
127	0xbd9aa06e	-0.07550131
128	0x3e6dda3c	0.23227781
129	0x3f50cf40	0.8156624
130	0x3e310230	0.1728599
131	0x3ea477b2	0.3212257
132	0x3e24f3c9	0.16108622
133	0x3e637b8c	0.22215098
134	0x3e88a80b	0.26690707
135	0x3eaae86f	0.33380458
136	0xbe8513d8	-0.25991702
137	0x3d430740	0.047614336
138	0xbe859daf	-0.26096866
139	0xbcabcd6a	-0.020971972
140	0x3deb27ec	0.11482224
141	0xbddae91d	-0.10688994
142	0x3de2456e	0.11048399
143	0xbdb2dbb6	-0.08733313
144	0xbe8c581a	-0.27410966
145	0x3d368615	0.044561464
146	0x3bc4211c	0.0059853923
147	0xbca376c3	-0.019954091
148	0xbc3f9268	-0.011692621
149	0xbd833a0c	-0.06407556
150	0x3e05d1ff	0.13068388
151	0xbd935e63	-0.07195737
152	0x3cf9fb9f	0.03051549
153	0xbe9d3d9e	-0.30711073
154	0xbeb17d39	-0.3466585
155	0xbebfc300	-0.3745346
156	0xbe6aa43a	-0.2291421
157	0xbed60c8e	-0.41806453
158	0xbcec8f96	-0.02887706
159	0xbf14429d	-0.57914144
160	0x3c43de72	0.011954891
161	0xbf12d160	-0.5735073
162	0x3dcfdb77	0.101492815
163	0xbe3d2759	-0.18472041
164	0x3d583409	0.052784
165	0xbf362311	-0.7114726
166	0xbd6d0340	-0.057864428
167	0xbf0c9601	-0.5491639
168	0x3db7bba0	0.089713335
169	0xbd827148	-0.06369263
170	0x3e9d02b9	0.3066614
171	0xbc9711e9	-0.018441157
172	0x3e2c9689	0.168543
173	0x3e2b495b	0.16727202
174	0xbdecd0b1	-0.11563242
175	0x3d0f284d	0.034950543
176	0xbea0cbaa	-0.31405383
177	0x3d89e564	0.06733206
178	0x3e0dac61	0.13835289
179	0x3dffe2a7	0.124944024
180	0x3de03de2	0.10949303
181	0x3dfb6d27	0.122766785
182	0x3df78970	0.12086761
183	0xbe8ea838	-0.27862716
184	0x3e096a39	0.13419427
185	0x3e0a3873	0.13498096
186	0x3d401003	0.04689027
187	0xbe405ad8	-0.18784654
188	0x3dbc7ba2	0.092032686
189	0xbdbbd74c	-0.09171924
190	0x3db17b73	0.08666124
191	0xbed68203	-0.41896066
192	0xbde17ae4	-0.11009768
193	0xbe8ecf30	-0.27892447
194	0xbe81296f	-0.25226924
195	0xbc413078	-0.011791341
196	0xbe8460c1	-0.25855067
197	0xbdcca93d	-0.09993217
198	0xbdf79a45	-0.120899715
199	0x3ea02252	0.31276184
200	0xbca8e3ba	-0.020616401
201	0x3ea638c4	0.32465184
202	0xbef72024	-0.4826671
203	0xbe5a448b	-0.2131521
204	0xbd25ecb6	-0.04050895
205	0x3e151d4d	0.14561959
206	0x3d05239c	0.032504663
207	0x3e828409	0.2549136
208	0xbcff5193	-0.031166827
209	0x3edae9fe	0.42756647
210	0xbe87ccf9	-0.2652357
211	0x3e185522	0.14876226
212	0xbcb78682	-0.022403006
213	0x3eff8554	0.4990641
214	0xbc54e8a3	-0.012994918
215	0x3e8e7b5f	0.278285
216	0xbe2702ec	-0.16309708
217	0x3e33c9d9	0.17557468
218	0x3e17ebfb	0.14836113
219	0x3e46932f	0.19392084
220	0x3ddb7a22	0.10716654
221	0x3e8e72f2	0.2782207
222	0x3bf3103d	0.0074177072
223	0x3e067c99	0.13133468
224	0xbd04c638	-0.0324156
225	0x3e3f8eb9	0.18706788
226	0xbded362f	-0.115826
227	0xbe74e682	-0.23916057
228	0xbe5f0d3e	-0.21782395
229	0xbdba550a	-0.09098251
230	0xbd8f0b97	-0.069846325
231	0xbe9c0500	-0.30472565
232	0xbdfb79cc	-0.1227909
233	0x3c8e4494	0.017366685
234	0x3deee027	0.116638474
235	0xbd90f50e	-0.070779905
236	0xbcda3fcc	-0.026641749
237	0xbded455d	-0.115854956
238	0x3e1d5c56	0.15367255
239	0xbeb346a5	-0.35014835
240	0xbe15e1ad	-0.1463687
241	0xbe94aa76	-0.290363
242	0xbc9109df	-0.017704902
243	0xbeee6789	-0.46563366
244	0x3cdd3144	0.02700103
245	0xbec71793	-0.38885173
246	0x3d8418b0	0.06450021
247	0xbde2a7fd	-0.110671975
248	0x3e0e4eab	0.13897197
249	0xbf4095df	-0.75228685
250	0x3adf8e2e	0.0017055923
251	0xbf622b55	-0.8834737
252	0xbd994c88	-0.074853
253	0x3ced6940	0.028980851
254	0xbe282c20	-0.16423082
255	0x3ef573a9	0.47939804
